app/src/main/ml/model.tflite (tflite, 86264 bytes, 10 tensors)

sequential_4/dense_24/MatMul f4 [3, 256]
0.0775058 -0.0071198316 -0.10206426 -0.056103636 0.009280406 -0.06822465 -0.053282954 -0.068374686
0.02592199 -5.565821e-05 0.13755417 0.05637913 0.0139131015 -0.06901306 -0.116520345 -0.04766309
-0.005294419 0.18539225 0.031334717 -0.08308028 0.1415929 -0.012189708 -0.019085487 -0.06674105
-0.014196341 0.10751016 0.024721615 -0.011220933 0.0851349 0.058978304 -0.05695542 0.05644074
-0.0076996926 -0.021577133 0.06465902 -0.0539146 0.028622571 -0.11120473 -0.09324916 0.06783903
-0.037391014 0.17634043 0.09740182 0.05587138 -0.049352136 -0.0074389293 -0.00090166135 0.034087956
0.14984807 0.103736885 0.10337623 0.110107094 0.11700423 0.116449006 0.02225402 -0.1860076
-0.012147942 0.14899471 -0.07797349 -0.020666553 0.089612834 0.021730604 -0.18780684 0.079652496
-0.0001116776 -0.0017505062 -0.084914796 0.010970361 0.05278414 0.0027875686 0.06296941 0.094157204
0.030345073 -0.043808647 -0.21039595 -0.08072391 0.08983566 -0.07977152 0.1074022 -0.048085965
0.06263476 -0.070954636 -0.05757174 -0.050024524 -0.06674741 0.090016104 0.058103133 -0.0256087
-0.05504914 0.07376601 0.026152082 0.005493255 -0.16952154 -0.0027883518 0.10213462 0.115097106
0.10694774 0.04426042 0.048161607 -0.05465777 0.0172202 0.13582769 0.054791044 0.026544193
-0.023041964 -0.077518575 -0.044425324 -0.037222467 0.013471401 -0.10619449 -0.058216795 -0.088063344
0.07192981 -0.10901691 0.04941752 -0.024170727 0.045216978 0.016273122 0.045134827 -1.8472354e-05
0.07630006 -0.109489754 -0.076773 0.02183845 -0.05346563 -0.008182097 0.006520663 0.062803484
-0.060291797 -0.03994084 0.18284297 -0.03291471 0.04122262 0.0111843785 -0.22564639 0.0051393975
-0.12433155 0.19669756 -0.0369846 0.007997524 -0.042636406 -0.06991517 0.05465413 -0.020156175
-0.09247157 0.03387417 0.14934164 -0.08319334 -0.006129663 -0.100651056 -0.07766443 0.07230388
0.13458139 0.16676952 -0.006576372 0.13410239 0.033715278 0.041463237 0.029538792 0.010623685
-0.062145203 -0.0845999 -0.005240702 -0.044400387 -0.08592896 -0.042603888 0.0683164 -0.13880394
0.1382703 0.07079938 0.06210402 0.061094742 0.15150274 -0.056781873 0.123003185 0.08820883
-0.0064612706 -0.028583111 0.07503715 0.08888459 0.002468476 0.0746024 0.12419236 -0.0023381046
-0.0066641546 0.046269123 0.023408981 0.008689128 0.058349144 0.109398834 -0.07837792 -0.12292692
-0.08214481 0.017338054 0.030069135 0.03066175 0.09415118 -0.08036078 0.11886503 -0.04698283
0.0063184495 0.0812578 0.020634972 0.091206394 -0.03544988 -0.030397696 0.048867956 -0.011967719
0.14927286 0.062049747 0.11069813 -0.042383652 0.049038686 0.11454467 -0.076466955 -0.051132295
0.011892888 -0.015749529 0.046428096 -0.004786517 -0.000423115 -0.010084599 -0.1362855 0.04470089
-0.10727911 -0.03164131 0.07439705 0.09577945 -0.054751746 -0.051577114 0.09450344 -0.07607112
-0.1762953 0.10468932 -0.12108994 0.07321861 -0.008847951 -0.17746964 -0.021209437 0.14097755
0.058060315 -0.1857957 -0.18414 -0.00981868 -0.04137689 -0.13134977 0.12090722 0.16877551
0.07240868 0.0012914187 0.09673423 0.16801444 0.03073703 -0.21075064 -0.18146065 0.02179135
00000000: 5cbb 9e3d 7a4d e9bb 1107 d1bd edcc 65bd
00000010: d80c 183c 5eb9 8bbd 3a3f 5abd 0708 8cbd
00000020: 5a5a d43c 8c72 69b8 00db 0c3e cded 663d
00000030: c7f3 633c b856 8dbd 38a2 eebd 5f3a 43bd
00000040: ce7c adbb 77d7 3d3e d558 003d fe25 aabd
00000050: bbfd 103e 57b7 47bc 2b59 9cbc 88af 88bd
00000060: c597 68bc 492e dc3d fc84 ca3c 01d8 37bc
00000070: 355b ae3d 3c93 713d 164a 69bd 682e 673d
00000080: b44d fcbb 87c2 b0bc f36b 843d 8ed5 5cbd
00000090: e279 ea3c 4ebf e3bd 6af9 bebd 30ef 8a3d
000000a0: 5227 19bd 9692 343e 9b7a c73d 63d9 643d
000000b0: 7725 4abd 43c2 f3bb 785d 6cba d09f 0b3d
000000c0: c671 193e 0174 d43d ebb6 d33d d47f e13d
000000d0: ea9f ef3d d17c ee3d 104e b63c c778 3ebe
000000e0: 2908 47bc 1292 183e 91b0 9fbd e74c a9bc
000000f0: ef86 b73d 6104 b23c 7050 40be d920 a33d
00000100: 7434 eab8 3e71 e5ba cfe7 adbd 07bd 333c
00000110: 2f34 583d a4af 363b 1bf6 803d 7ed5 c03d
00000120: 3b96 f83c b270 33bd 0972 57be 9452 a5bd
00000130: c2fb b73d 405f a3bd aff5 db3d caf5 44bd
00000140: a746 803d aa50 91bd 58d0 6bbd 84e6 4cbd
00000150: deb2 88bd 5d5a b83d 8dfd 6d3d 56c9 d1bc
00000160: 357b 61bd a212 973d e43c d63c c300 b43b
00000170: 0e97 2dbe c8bc 36bb f52b d13d 08b8 eb3d
00000180: 6b07 db3d 6a4a 353d 1b45 453d d3e0 5fbd
00000190: 6011 8d3c 6a16 0b3e 936c 603d 3573 d93c
000001a0: 80c2 bcbc 0fc2 9ebd 54f7 35bd 9676 18bd
000001b0: 27b7 5c3c 7f7c d9bd bc74 6ebd 8e5a b4bd
000001c0: f04f 933d 4244 dfbd 076a 4a3d b001 c6bc
000001d0: 7035 393d 364f 853c 4cdf 383d 14f5 9ab7
000001e0: 3543 9c3d 2a3c e0bd 2a3b 9dbd 8de6 b23c
000001f0: c7fe 5abd 340e 06bc 49ab d53b 1d9f 803d
00000200: 88f4 76bd 0299 23bd 303b 3b3e 93d1 06bd
00000210: 0dd9 283d af3e 373c d90f 67be 6468 a83b
00000220: 8aa1 febd 166b 493e 2a7d 17bd 0c08 033c
00000230: 83a3 2ebd af2f 8fbd 02dd 5f3d 901e a5bc
00000240: bc61 bdbd a4bf 0a3d 04ed 183e 4561 aabd
00000250: 57db c8bb 2422 cebd 870e 9fbd 0e14 943d
00000260: b4cf 093e a1c5 2a3e 9b7e d7bb 2352 093e
00000270: 0819 0a3d 5bd5 293d 56fb f13c f70e 2e3c
00000280: f88b 7ebd b642 adbd 32ba abbb 2edd 35bd
00000290: 86fb afbd 6a81 2ebd 78e9 8b3d 9f22 0ebe
000002a0: bb96 0d3e 44ff 903d c960 7e3d 7b3e 7a3d
000002b0: 8923 1b3e 1c94 68bd 18e9 fb3d d5a6 b43d
000002c0: 11b9 d3bb 2127 eabc 14ad 993d 2009 b63d
000002d0: 28c6 213b 25c9 983d 9058 fe3d e33a 19bb
000002e0: fb5e dabb b184 3d3d 31c4 bf3c d85c 0e3c
000002f0: 83ff 6e3d 7f0c e03d 9a84 a0bd 1cc1 fbbd
00000300: 8a3b a8bd 8908 8e3c 8c53 f63c 5a2e fb3c
00000310: 55d2 c03d 3194 a4bd 826f f33d 1171 40bd
00000320: ff0a cf3b 7d6a a63d ac0a a93c 6bca ba3d
00000330: e533 11bd 9704 f9bc c429 483d 4014 44bc
00000340: fcda 183e e027 7e3d b4b5 e23d 7b9a 2dbd
00000350: cadc 483d 6596 ea3d b59a 9cbd 1970 51bd
00000360: 63da 423c 2805 81bc 632b 3e3d 37d8 9cbb
00000370: 89d5 ddb9 e039 25bc 6d8e 0bbe 4818 373d
00000380: 26b5 dbbd 519a 01bd 7b5d 983d 0428 c43d
00000390: 5e43 60bd 8642 53bd 058b c13d 2dcb 9bbd
000003a0: c186 34be 5b67 d63d 01fe f7bd a3f3 953d
000003b0: fff6 10bc 9aba 35be 6abf adbc 6b5c 103e
000003c0: a7d0 6d3d 3a41 3ebe 328f 3cbe 87de 20bc
000003d0: d07a 29bd 8e80 06be 349e f73d 7dd3 2c3e
000003e0: 014b 943d d244 a93a 991c c63d fa0b 2c3e
000003f0: 39cc fb3c 04cf 57be d2d0 39be c683 b23c

sequential_4/dense_24/BiasAdd/ReadVariableOp f4 [3]
0.12914068 -0.11094081 -0.020821337
00000000: 743d 043e ef34 e3bd 8291 aabc

sequential_4/dense_23/BiasAdd/ReadVariableOp f4 [256]
0.14087877 -0.010843765 -0.0029470841 -0.101191126 -0.06491355 -0.06441502 -0.08594275 0.023853138
-0.08607014 -0.081477344 -0.29683682 0.20022185 -0.085577965 -0.18604065 0.13670526 -0.020152938
-0.12115275 0.22360256 0.20685591 -0.11253986 0.100592256 -0.08350917 -0.053508945 0.009339828
-0.11416764 0.08661811 0.097183555 -0.10531455 -0.049141064 -0.021371108 0.0068619368 0.11363701
-0.16227563 -0.21739645 -0.06495162 -0.19969943 0.16308565 0.07913448 -0.03961993 -0.120635316
0.00928013 0.19317651 0.089795634 -0.19326477 -0.07009689 -0.0135908555 0.006744298 -0.01757252
0.14914316 0.23441064 -0.06914116 0.17294154 -0.079980366 -0.19561307 -0.07824539 -0.3473931
-0.29357123 0.033800103 -0.11259466 -0.120147474 -0.011211145 0.018331958 -0.07696968 -0.105821475
-0.045862533 0.07890251 -0.031473774 0.111131 0.01967043 -0.09976501 -0.19881187 -0.09216163
-0.06905562 -0.051418334 -0.035973217 -0.050074607 -0.08583732 -0.03246598 0.09404681 -0.06002861
-0.039006926 0.07529276 -0.07961265 -0.14635925 -0.037435528 0.116791904 -0.15276174 0.1238532
0.04656156 -0.011813318 -0.082812674 -0.08201302 -0.06222947 -0.018912911 0.016537387 -0.08168756
-0.053986914 0.03565217 -0.047988556 -0.22517236 -0.095520146 0.12293465 -0.07315992 -0.074972846
-0.09379027 -0.008232082 -0.112309776 0.12346126 -0.08278426 -0.10418421 0.06037642 0.029140651
-0.02924564 -0.16152135 -0.029529097 0.0465447 0.023135992 -0.33447984 -0.012239074 -0.085761875
-0.11080298 -0.05590605 -0.21850288 -0.046212476 -0.22355713 0.16155948 -0.054236446 -0.064457364
-0.04703299 -0.20243518 -0.10037953 0.13758758 0.12776561 -0.083382115 -0.23195508 -0.10740354
-0.090968415 -0.12571329 -0.14493322 -0.08361724 -0.06591929 -0.13855621 -0.075066805 -0.10264917
-0.08199289 -0.121331096 0.1314119 -0.09713307 -0.0077862684 -0.15682472 -0.10264788 -0.047720086
0.15624024 0.09475923 -0.054117214 0.1327104 -0.0135741355 -0.0604631 0.055400606 -0.060422007
-0.03964461 -0.06685529 -0.27827144 0.07076411 -0.050032735 -0.07246002 -0.12552725 -0.113352165
0.06697921 -0.23633638 -0.07163863 -0.33496374 0.17497884 -0.10654255 0.009261578 -0.09433594
0.056108207 0.0059495866 -0.13370074 -0.019961776 -0.048688542 -0.4143371 0.022903118 -0.033974644
-0.065502524 0.018493146 -0.12038096 0.0072712274 0.055280164 -0.07917829 -0.20574571 0.09694891
-0.27511173 -0.070668355 0.06850526 0.014796298 -0.055856522 -0.18015274 -0.061752275 0.05044124
-0.037740204 0.046935383 -0.109674215 0.047827333 -0.049992163 -0.04525848 -0.077325106 -0.27536574
-0.25643894 -0.058248866 0.14815308 -0.15411797 0.09444032 0.09463453 -0.077057436 -0.05375521
-0.06465183 0.21685492 -0.08412937 0.033809643 -0.00256681 0.11431632 -0.031707577 0.12564631
-0.056961067 -0.06002759 -0.10124787 -0.07543862 -0.00126861 -0.008442309 -0.06345435 -0.055980094
-0.14340037 -0.11145958 0.0005054424 -0.13684829 0.07814277 -0.16745733 -0.11763091 0.14046302
0.0010651086 -0.25400573 0.028857933 0.028319206 -0.14683776 0.0888585 0.13005906 0.17122568
-0.14495112 0.06203969 -0.08236947 0.26598728 -0.1007665 0.0983026 -0.15763251 -0.08801367
00000000: 8642 103e 0caa 31bc de23 41bb 4b3d cfbd
00000010: 65f1 84bd 06ec 83bd c102 b0bd a867 c33c
00000020: 8b45 b0bd 98dd a6bd fffa 97be f506 4d3e
00000030: 8043 afbd 7181 3ebe 77fc 0b3e c617 a5bc
00000040: ef1e f8bd 12f8 643e 09d2 533e 4c7b e6bd
00000050: 5003 ce3d db06 abbd 322c 5bbd 1406 193c
00000060: b9d0 e9bd d664 b13d 2c08 c73d 28af d7bd
00000070: 2448 49bd 7612 afbc 19da e03b 85ba e83d
00000080: 952b 26be 2d9d 5ebe 5b05 85bd 027e 4cbe
00000090: edff 263e 4211 a23d 8248 22bd a60f f7bd
000000a0: b00b 183c 10d0 453e c6e6 b73d 33e7 45be
000000b0: f58e 8fbd 2eac 5ebc 46ff dc3b 3ff4 8fbc
000000c0: fcb8 183e 5809 703e e199 8dbd 9617 313e
000000d0: bfcc a3bd cb4e 48be 1e3f a0bd 82dd b1be
000000e0: f84e 96be fa71 0a3d 0798 e6bd e10f f6bd
000000f0: f3ae 37bc e72c 963c 48a2 9dbd eeb8 d8bd
00000100: 5ada 3bbd a497 a13d a5ea 00bd a698 e33d
00000110: e223 a13c 9951 ccbd 5795 4bbe 3dbf bcbd
00000120: 086d 8dbd 089c 52bd a758 13bd 081b 4dbd
00000130: 7acb afbd 0cfb 04bd 9d9b c03d 8fe0 75bd
00000140: bac5 1fbd 1733 9a3d f50b a3bd 33df 15be
00000150: ff55 19bd 9830 ef3d 936d 1cbe bfa6 fd3d
00000160: 56b7 3e3d a68c 41bc b199 a9bd 71f6 a7bd
00000170: 54e4 7ebd 40ef 9abc 6a79 873c cf4b a7bd
00000180: 6221 5dbd 0308 123d a68f 44bd 9593 66be
00000190: 11a0 c3bd 29c5 fb3d ded4 95bd 5d8b 99bd
000001a0: 1d15 c0bd dbdf 06bc ab02 e6bd 42d9 fc3d
000001b0: cb8a a9bd 885e d5bd 444d 773d 60b8 ee3c
000001c0: 8d94 efbc da65 25be 01e7 f1bc a8a5 3e3d
000001d0: b187 bd3c f140 abbe 6686 48bc eca3 afbd
000001e0: acec e2bd befd 64bd 38bf 5fbe 4b49 3dbd
000001f0: 29ec 64be d96f 253e 0927 5ebd 3902 84bd
00000200: aaa5 40bd 2b4b 4fbe c893 cdbd c2e3 0c3e
00000210: fdd4 023e 3ec4 aabd a285 6dbe 63f6 dbbd
00000220: a64d babd fcba 00be 6069 14be 843f abbd
00000230: b100 87bd aee1 0dbe a0bc 99bd ba39 d2bd
00000240: e3eb a7bd 707c f8bd d790 063e b4ed c6bd
00000250: f423 ffbb a996 20be 0d39 d2bd 2376 43bd
00000260: 71fd 1f3e 2111 c23d 03aa 5dbd 3ce5 073e
00000270: 0d66 5ebc 28a8 77bd bfeb 623d 117d 77bd
00000280: 6362 22bd 6deb 88bd 9879 8ebe c6ec 903d
00000290: 20ef 4cbd eb65 94bd 378a 00be 2e25 e8bd
000002a0: 652c 893d 2a02 72be 46b7 92bd 5e80 abbe
000002b0: a72d 333e fb32 dabd e0bd 173c 3433 c1bd
000002c0: b8d1 653d c0f4 c23b d9e8 08be e186 a3bc
000002d0: a36d 47bd fe23 d4be 529f bb3c ff28 0bbd
000002e0: 3026 86bd f07e 973c 4b8a f6bd 7a43 ee3b
000002f0: 746d 623d 3a28 a2bd 01af 52be 268d c63d
00000300: 72db 8cbe 92ba 90bd 7c4c 8c3d 2c6c 723c
00000310: cfc9 64bd f679 38be f4ef 7cbd 799b 4e3d
00000320: 7995 1abd 513f 403d e09c e0bd 98e6 433d
00000330: 95c4 4cbd f560 39bd a05c 9ebd bdfc 8cbe
00000340: f74b 83be 5d96 6ebd 71b5 173e 1ad1 1dbe
00000350: ed69 c13d c0cf c13d 4ad0 9dbd 6c2e 5cbd
00000360: 2e68 84bd 370f 5e3e 054c acbd fb7b 0a3d
00000370: ed37 28bb ad1e ea3d cedf 01bd 6da9 003e
00000380: 0250 69bd 7ddf 75bd 0b5b cfbd 907f 9abd
00000390: 7d47 a6ba 9c51 0abc 5bf4 81bd 624b 65bd
000003a0: 8cd7 12be ec44 e4bd aa7f 043a f521 0cbe
000003b0: 5109 a03d ef79 2bbe 79e8 f0bd 8ad5 0f3e
000003c0: 1d9b 8b3a 0a0d 82be 7967 ec3c aefd e73c
000003d0: a35c 16be 72fb b53d 342e 053e c955 2f3e
000003e0: 116e 14be 541d 7e3d 53b1 a8bd 7c2f 883e
000003f0: ab5e cebd e052 c93d 6b6a 21be 8340 b4bd

sequential_4/dense_22/BiasAdd/ReadVariableOp f4 [128]
-0.056360357 -0.016963214 -0.04752351 -0.065951176 -0.080429286 -0.16550079 -0.07767242 -0.0044526593
-0.14340214 0.019113192 -0.088044964 -0.10605707 -0.06678518 -0.0600318 -0.062189084 -0.095644645
-0.179208 -0.11260484 -0.07545773 -0.055766977 -0.060041413 -0.067445666 -0.17608784 -0.1280269
-0.11962722 -0.045469362 -0.059488416 -0.22576582 -0.13606583 -0.060043167 -0.059048537 0.02346364
-0.12563075 -0.080634184 0.044063024 -0.06186077 -0.1259041 0.048763026 -0.14646949 -0.0878131
-0.09273247 -0.09509425 -0.053938337 -0.02674285 -0.05625226 -0.12753566 -0.086478405 0.120922245
-0.012416621 -0.15020686 -0.11333916 -0.19508821 -0.041181114 -0.060039446 -0.01584037 0.08952894
-0.072516836 -0.104287446 0.061421767 -0.10260202 -0.1769518 0.08227173 -0.19197948 0.17657758
0.1790642 0.06789136 -0.11782806 0.0055688554 -0.19788486 -0.08481917 -0.07579349 0.035282552
0.10767458 0.03439266 -0.081020065 -0.035137158 -0.097149484 -0.11617873 -0.072165444 -0.12741251
-0.06935987 -0.099786125 -0.18365651 -0.060044516 -0.1561493 0.0143631175 -0.031093271 0.0017067895
-0.060046617 -0.090293966 -0.11255894 -0.08998754 -0.084069215 -0.079701714 0.12122092 0.07739794
-0.117501535 -0.080500655 -0.11675506 -0.06002192 -0.2493327 -0.08289681 -0.05896199 -0.08399417
-0.09745521 -0.06698652 -0.058309916 -0.19667959 -0.13829233 -0.05809473 -0.056788888 -0.113455236
-0.056632727 -0.03368231 -0.119198695 -0.06273807 0.08281327 -0.21080393 -0.08425106 -0.042521607
0.03020533 -0.09680887 -0.059192106 0.049119923 -0.08094671 -0.08333457 -0.023596719 -0.09884035
00000000: 1eda 66bd 70f6 8abc 03a8 42bd 6911 87bd
00000010: 1cb8 a4bd 0a79 29be b812 9fbd 9de7 91bb
00000020: 03d8 12be 4593 9c3c eb50 b4bd 7334 d9bd
00000030: abc6 88bd e8e3 75bd fbb9 7ebd 57e1 c3bd
00000040: 4d82 37be 5e9d e6bd 9589 9abd ea6b 64bd
00000050: fced 75bd f420 8abd 5f50 34be 7c19 03be
00000060: 1eff f4bd 153e 3abd 20aa 73bd 282f 67be
00000070: d754 0bbe d3ef 75bd e1dc 71bd d236 c03c
00000080: 59a5 00be 8923 a5bd 6e7b 343d b861 7dbd
00000090: 01ed 00be bdbb 473d 19fc 15be 5bd7 b3bd
000000a0: 85ea bdbd c6c0 c2bd 72ee 5cbd d213 dbbc
000000b0: c568 66bd b598 02be 971b b1bd 15a6 f73d
000000c0: 156f 4bbc d4cf 19be 5d1e e8bd 34c5 47be
000000d0: 87ad 28bd eceb 75bd aac3 81bc f35a b73d
000000e0: b583 94bd a894 d5bd 6495 7b3d 0221 d2bd
000000f0: da32 35be 157e a83d 4596 44be c1d0 343e
00000100: 9b5c 373e a00a 8b3d d74f f1bd f27a b63b
00000110: 54a2 4abe acb5 adbd 9e39 9bbd 7084 103d
00000120: 7d84 dc3d 51df 0c3d d9ed a5bd fbeb 0fbd
00000130: 4ff6 c6bd 1def edbd 7acb 93bd 6d78 02be
00000140: 8c0c 8ebd ab5c ccbd 7410 3cbe 3df1 75bd
00000150: 9ae5 1fbe 4853 6b3c 51b7 febc 5ab6 df3a
00000160: 71f3 75bd 0bec b8bd 4d85 e6bd 634b b8bd
00000170: 7b2c acbd a73a a3bd ac42 f83d d082 9e3d
00000180: a5a4 f0bd 87dd a4bd 471d efbd 8bd9 75bd
00000190: 1251 7fbe cdc5 a9bd 2182 71bd 2305 acbd
000001a0: 9996 c7bd 3b30 89bd 61d6 6ebd 6066 49be
000001b0: 819c 0dbe bdf4 6dbd 779b 68bd 385b e8bd
000001c0: b8f7 67bd 76f6 09bd 721e f4bd d17c 80bd
000001d0: 019a a93d fcdc 57be d28b acbd 232b 2ebd
000001e0: 2b71 f73c bb43 c6bd 6c73 72bd f931 493d
000001f0: 64c7 a5bd 51ab aabd e84d c1bc cf6c cabd

sequential_4/dense_21/BiasAdd/ReadVariableOp f4 [256]
-0.20426191 -0.07791192 -0.27884302 -0.08456291 0.027221553 0.040113006 -0.07287527 -0.08574544
0.0796516 -0.084119245 -0.07640294 -0.024537522 -0.15915991 -0.0055394107 -0.15136984 -0.2058561
-0.19569743 -0.19105415 -0.07981555 -0.065277934 -0.26498595 -0.1030161 -0.06391954 -0.053005457
-0.13162218 -0.08613084 -0.03945638 -0.07771033 -0.0067690155 -0.13878903 -0.061722174 0.0027996276
-0.07023652 -0.036707353 -0.030748684 -0.10731092 -0.07860732 -0.0885947 -0.21420467 -0.07142317
-0.12108682 -0.066196464 -0.053612195 -0.013346451 -0.06441482 -0.1335095 -0.0887266 -0.0462169
-0.037625566 -0.1294512 0.057665884 -0.068969734 -0.08884907 -0.07182988 -0.08202108 -0.014781822
-0.23191383 -0.27169764 -0.05492022 -0.07406294 -0.09695302 0.058182873 -0.19465312 -0.07252786
0.05308217 -0.19060433 0.009026943 -0.05516376 -0.07803388 -0.1015487 -0.047532674 -0.0068584066
-0.0901363 0.09543188 -0.17676394 -0.056714587 -0.039628636 -0.07206551 -0.025371192 -0.09532493
-0.38520825 -0.007060151 0.009682319 -0.08525571 -0.107929155 -0.07731814 -0.074173376 -0.04242211
-0.07261995 -0.32093742 -0.052399654 -0.085744835 -0.15567985 -0.08899725 -0.14205274 -0.05237548
0.093234256 -0.0878393 -0.06418172 -0.07859626 -0.010806972 0.02519585 -0.06454727 -0.11794379
-0.05564037 -0.032865398 -0.13712966 0.03448403 -0.06913264 -0.057222974 -0.111281104 -0.06969802
-0.13715817 0.06396319 -0.05729211 -0.08405563 0.06637598 -0.05556085 -0.11178683 0.053725246
-0.08240095 -0.14763916 -0.22241473 0.065584786 -0.1620746 -0.088688776 -0.07639473 -0.05254531
-0.055428427 -0.09727559 -0.10820847 -0.083664276 -0.072317936 -0.06611072 -0.0053022075 -0.09585828
0.029501693 -0.06536345 -0.13512607 0.011918349 -0.037569683 -0.2091504 0.077382274 -0.108941615
-0.09588056 0.03352963 -0.05117847 0.046983723 -0.11650432 -0.0718668 -0.1381289 -0.10108892
-0.1572809 -0.0005455252 -0.1927194 -0.07105151 -0.092603825 -0.07060047 -0.08463765 -0.06808425
-0.08347984 -0.13985199 -0.07880757 0.053237915 0.06521891 -0.02999381 -0.09792852 -0.014461485
0.005502997 0.024865866 -0.04938842 -0.008615937 -0.093587376 -0.20625557 -0.041631795 -0.04581857
-0.07151034 -0.14127594 0.048362423 -0.13495414 -0.07202868 -0.057889618 -0.13547762 -0.07282526
-0.03876331 -0.125966 -0.085424915 -0.028919647 -0.059801996 0.030037124 -0.027478233 -0.09054808
-0.04205204 -0.0778154 -0.2567533 -0.07587645 -0.02694654 -0.08432743 -0.19930363 -0.062254533
0.026879726 -0.06844056 -0.032666817 -0.035622425 -0.09113588 -0.07836396 -0.042275406 -0.29086614
0.040466342 -0.060027167 -0.055442523 -0.08813542 -0.008128061 -0.0787968 -0.10601589 -0.097734846
-0.04929318 -0.09798932 -0.06001198 -0.059806824 -0.118895836 -0.09848175 -0.062299956 -0.038046423
-0.06791735 -0.1605279 -0.060011588 0.024956238 -0.013583019 -0.15436247 -0.13463458 -0.07467237
-0.0037567206 0.028350031 -0.08216476 -0.12410347 -0.112344936 -0.031879723 -0.11193109 -0.08979249
-0.08561828 -0.13958873 -0.16878578 -0.023061851 -0.10290581 0.0654895 -0.15093386 -0.05810363
-0.006297373 -0.15758248 0.029037258 -0.13464552 0.04979564 -0.102561615 -0.07856604 -0.147398
00000000: 092a 51be 4990 9fbd 83c4 8ebe 522f adbd
00000010: bcff de3c 894d 243d a13f 95bd 4e9b afbd
00000020: 6120 a33d b646 acbd 2579 9cbd ea02 c9bc
00000030: d1fa 22be f283 b5bb b200 1bbe f1cb 52be
00000040: e864 48be b3a3 43be 5676 a3bd 70b0 85bd
00000050: 3dac 87be 1bfa d2bd 3fe8 82bd 401c 59bd
00000060: f7c7 06be 5e65 b0bd 039d 21bd 9826 9fbd
00000070: 9ece ddbb b61e 0ebe 64d0 7cbd f579 373b
00000080: 2ad8 8fbd 735a 16bd aae4 fbbc d4c5 dbbd
00000090: e0fc a0bd 2371 b5bd 7858 5bbe 5046 92bd
000000a0: 5efc f7bd 0392 87bd 7698 5bbd 13ab 5abc
000000b0: ebeb 83bd b7b6 08be 4bb6 b5bd ef4d 3dbd
000000c0: 441d 1abd db8e 04be 1033 6c3d 0140 8dbd
000000d0: 80f6 b5bd 8b1b 93bd abfa a7bd 752f 72bc
000000e0: d27a 6dbe f41b 8bbe 06f4 60bd 50ae 97bd
000000f0: 4e8f c6bd 2a51 6e3d 2653 47be 7d89 94bd
00000100: b16c 593d c82d 43be bee5 133c 65f3 61bd
00000110: 3ad0 9fbd c4f8 cfbd 9fb1 42bd 7cbc e0bb
00000120: 6199 b8bd ca71 c33d 9b01 35be 8e4d 68bd
00000130: a351 22bd 1597 93bd 3fd7 cfbc b839 c3bd
00000140: 043a c5be d758 e7bb 97a2 1e3c 8c9a aebd
00000150: f609 ddbd f958 9ebd 36e8 97bd cec2 2dbd
00000160: c5b9 94bd e951 a4be 05a1 56bd fd9a afbd
00000170: 8a6a 1fbe 3144 b6bd 4676 11be ac87 56bd
00000180: 9af1 be3d 17e5 b3bd b571 83bd 13f7 a0bd
00000190: ba0f 31bc 8767 ce3c 5c31 84bd 848c f1bd
000001a0: 28e7 63bd de9d 06bd b86b 0cbe 203f 0d3d
000001b0: 6a95 8dbd a362 6abd 59e7 e3bd d6bd 8ebd
000001c0: 3173 0cbe 22ff 823d 22ab 6abd 5c25 acbd
000001d0: 21f0 873d c693 63bd 7ef0 e4bd 010f 5c3d
000001e0: d4c1 a8bd b82e 17be b0c0 63be 5151 863d
000001f0: e2f6 25be 76a2 b5bd d774 9cbd c039 57bd
00000200: eb08 63bd 6d38 c7bd 679c ddbd 2d58 abbd
00000210: 6d1b 94bd 0f65 87bd 24be adbb 5951 c4bd
00000220: 89ad f13c 46dd 85bd 7d5e 0abe 2e45 433c
00000230: abe2 19bd 862b 56be 997a 9e3d c81c dfbd
00000240: 075d c4bd 5e56 093d 84a0 51bd 0172 403d
00000250: d199 eebd e72e 93bd aa71 0dbe b507 cfbd
00000260: 3f0e 21be 9401 0fba 3c58 45be 7483 91bd
00000270: 13a7 bdbd fb96 90bd 8156 adbd c16f 8bbd
00000280: 7af7 aabd 5c35 0fbe dd65 a1bd 0010 5a3d
00000290: 7e91 853d 94b5 f5bc bf8e c8bd ddef 6cbc
000002a0: 7c52 b43b 80b3 cb3c 834b 4abd dc29 0dbc
000002b0: bdaa bfbd a934 53be 1a86 2abd 41ac 3bbd
000002c0: 0374 92bd a4aa 10be ad17 463d 6b31 0abe
000002d0: c683 93bd aa1d 6dbd a5ba 0abe 6925 95bd
000002e0: 47c6 1ebd 3bfd 00be 42f3 aebd e5e8 ecbc
000002f0: f0f2 74bd 6a10 f63c 081a e1bc 4671 b9bd
00000300: c33e 2cbd ae5d 9fbd 2b75 83be 1d65 9bbd
00000310: febe dcbc dcb3 acbd 4016 4cbe 9cfe 7ebd
00000320: df32 dc3c 902a 8cbd a4cd 05bd d2e8 11bd
00000330: 73a5 babd 497d a0bd fa28 2dbd 68ec 94be
00000340: 09c0 253d 0cdf 75bd b317 63bd 5880 b4bd
00000350: 8f2b 05bc 3760 a1bd dc1e d9bd 3529 c8bd
00000360: a5e7 49bd a0ae c8bd 1fcf 75bd 00f8 74bd
00000370: a97f f3bd cdb0 c9bd 3d2e 7fbd 91d6 1bbd
00000380: 4018 8bbd 6d61 24be b6ce 75bd 0671 cc3c
00000390: 508b 5ebc 3211 1ebe a6dd 09be d4ed 98bd
000003a0: 5033 76bb 533e e83c ff45 a8bd f629 febd
000003b0: 1a15 e6bd 5094 02bd 213c e5bd 20e5 b7bd
000003c0: a358 afbd 59f0 0ebe 2ed6 2cbe 35ec bcbc
000003d0: 48c0 d2bd 5c1f 863d 688e 1abe 12fe 6dbd
000003e0: 325a cebb 4d5d 21be 8bdf ed3c 84e0 09be
000003f0: 83f6 4b3d d30b d2bd 3be7 a0bd 80ef 16be

sequential_4/dense_20/BiasAdd/ReadVariableOp f4 [31]
-0.06725397 -0.043380868 -0.09347897 -0.12574413 -0.06355628 -0.053080827 -0.030269865 -0.0026639565
-0.10701422 0.007879599 -0.07204575 -0.110522114 -0.059855577 -0.10776502 -0.050443944 -0.048449166
0.021069761 0.1123092 -0.07174269 -0.123361096 -0.06054381 -0.1062926 -0.037921898 -0.08214073
0.11457095 -0.10728608 0.06221999 -0.113448486 0.010754243 0.0142195085 -0.0016618617
00000000: 73bc 89bd 23b0 31bd e771 bfbd 12c3 00be
00000010: cc29 82bd 486b 59bd 82f8 f7bc c695 2ebb
00000020: 452a dbbd 6f19 013c b98c 93bd 6b59 e2bd
00000030: 1f2b 75bd e8b3 dcbd 4f9e 4ebd a272 46bd
00000040: 7e9a ac3c 5e02 e63d d5ed 92bd bea4 fcbd
00000050: c9fc 77bd efaf d9bd fe53 1bbd 6639 a8bd
00000060: 2da4 ea3d ceb8 dbbd 63da 7e3d ae57 e8bd
00000070: 9032 303c f1f8 683c d3d2 d9ba

sequential_4/dense_20/MatMul f4 [31, 31]
-0.34034434 0.5007009 -0.32163852 0.19917333 0.40877575 -0.024214044 -0.30420113 0.100655474
0.27241042 -0.37104797 -0.38464907 -0.37706435 0.10976287 -0.48413616 0.29558793 0.16161901
-0.0920065 0.2585316 0.020189507 0.35754722 -0.10243649 -0.03436853 0.21207033 0.4955048
0.22750743 -0.22556245 -0.1294033 -0.24077334 0.22303851 -0.17158549 0.30773446 -0.2714164
-0.23445423 0.2222524 -0.06523612 0.08642251 -0.053862378 -0.34016627 0.066920444 -0.13760912
-0.33668235 -0.14648679 0.2522212 0.1910607 -0.12852663 0.1219073 0.18062937 0.11012826
-0.15665025 0.18201287 -0.07912646 -0.1401883 0.18197033 -0.25556406 -0.27659237 -0.07732021
0.24785617 0.19816414 -0.08026207 -0.1946151 -0.2786096 -0.21786472 -0.013893884 0.10405983
-0.32278284 0.094530374 -0.13009378 0.14722893 -0.1765469 -0.24347806 0.14874762 -0.09308202
0.12107673 0.26790708 0.20221363 0.10365913 0.043126862 -0.36761406 0.11787024 -0.027171956
0.2075689 -0.26997665 -0.33808613 -0.3708511 -0.2612203 0.01823787 -0.12572725 -0.01841261
0.120392025 -0.07465447 -0.3457394 0.22519863 -0.14324039 -0.015572948 0.5171148 -0.11595739
0.1985453 0.8112021 -0.2086284 0.05901227 0.22905636 0.25544724 0.17374282 -0.2137943
-0.14077161 0.074164174 0.46175244 -0.2590528 -0.25937212 0.22044067 0.52182406 0.19149154
-0.58224463 -0.3019675 0.61402035 0.50521743 0.23653568 0.17146993 0.31904998 0.08048095
-0.61998206 -0.2667047 0.32115835 0.6448675 -0.2960516 -0.17050765 -0.31007943 -0.11819799
-0.1975741 -0.1615173 -0.36198798 0.01888762 0.12854968 0.05279375 -0.010749123 0.18978556
0.17400566 -0.023183987 0.15556343 0.0403583 -0.026388371 -0.09440616 -0.12013235 0.23320398
0.04961264 -0.23702765 0.23955242 0.025117746 0.15083104 -0.09197869 -0.19828875 -0.2931265
-0.3133644 -0.1313507 0.2075819 -0.09196501 -0.066276535 -0.34592992 -0.08598706 -0.35031062
0.0625508 0.061997727 0.043455612 -0.12734148 0.10634245 0.14636827 0.20893063 0.06406314
-0.29736984 -0.25990617 -0.0033282966 -0.056943648 0.15368387 0.22637075 0.21126743 0.04617319
0.046368748 -0.01723145 0.22712912 -0.31290138 0.06705309 -0.31979254 -0.26044875 0.24717435
-0.009179934 0.057376724 -0.7495112 0.31150252 -0.6516689 -0.6058699 0.32844093 -0.040033493
-0.080083266 0.16781096 -0.122970216 -0.09209676 0.117037885 -0.6266623 -0.027785566 -0.9279465
-0.23241019 0.123538636 -0.20344976 0.33765364 -0.1816936 0.40914142 0.27486473 0.055116244
-0.13673957 0.22681428 0.28129855 -0.16213523 -0.3271827 0.31803897 0.18644992 0.116365634
-0.30755043 0.580022 -0.50535166 0.23563167 0.1575237 -0.515257 0.15307622 0.21695463
-0.45737368 -0.07925404 0.30326805 -0.43007907 -0.19187759 0.113622315 0.56448746 0.3493114
-0.27100277 -0.058957867 -0.35601076 -0.06095756 -0.33590326 0.06151131 0.09667681 0.047549315
-0.24247323 0.22842956 -0.2850485 0.22169633 0.04447838 0.2682784 -0.036555786 0.16115433
-0.041756146 -0.14590804 -0.2556714 -0.11782195 -0.04086444 -0.2665742 -0.06962103 -0.23917136
00000000: 9d41 aebe ef2d 003f cead a4be 18f4 4b3e
00000010: 0e4b d13e 885c c6bc 40c0 9bbe 7524 ce3d
00000020: 6179 8b3e 00fa bdbe b9f0 c4be 940e c1be
00000030: 5bcb e03d b2e0 f7be 4d57 973e 747f 253e
00000040: e76d bcbd 415e 843e 7764 a53c 6e10 b73e
00000050: 39ca d1bd 04c6 0cbd f728 593e ceb2 fd3e
00000060: b5f7 683e d8f9 66be 4c82 04be 498d 76be
00000070: 3564 643e 1bb4 2fbe 5f8f 9d3e 17f7 8abe
00000080: c514 70be 2296 633e 849a 85bd 49fe b03d
00000090: cc9e 5cbd 462a aebe 960d 893d 68e9 0cbe
000000a0: a161 acbe a200 16be 2323 813e 6ba5 433e
000000b0: 7c9c 03be 89aa f93d e8f6 383e ed8a e13d
000000c0: ec68 20be 9561 3a3e 0e0d a2bd 868d 0fbe
000000d0: 6e56 3a3e 4bd9 82be 849d 8dbe 0f5a 9ebd
000000e0: 02ce 7d3e 8aeb 4a3e 7160 a4bd 2e49 47be
000000f0: eba5 8ebe ee17 5fbe 2ca3 63bc 521d d53d
00000100: cb43 a5be 2499 c13d 4e37 05be 2ec3 163e
00000110: b6c8 34be 5052 79be 4c51 183e c9a1 bebd
00000120: 14f7 f73d 1e2b 893e 1711 4f3e 3d4b d43d
00000130: cba5 303d e937 bcbe f465 f13d b997 debc
00000140: f18c 543e 613a 8abe a019 adbe 32e0 bdbe
00000150: abbe 85be 9667 953c a5be 00be 0bd6 96bc
00000160: 1890 f63d 71e4 98bd c104 b1be 789a 663e
00000170: 9cad 12be ae25 7fbc a361 043f 117b edbd
00000180: 764f 4b3e f1aa 4f3f afa2 55be dab6 713d
00000190: c08d 6a3e fbc9 823e a3e9 313e e5ec 5abe
000001a0: 6f26 10be 63e3 973d d16a ec3e 92a2 84be
000001b0: 6ccc 84be 33bb 613e 4396 053f 5c16 443e
000001c0: fc0d 15bf 7c9b 9abe 7030 1d3f ee55 013f
000001d0: 6936 723e d095 2f3e 855a a33e 32d3 a43d
000001e0: 25b7 1ebf 858d 88be de6e a43e 0916 253f
000001f0: 1394 97be 8f99 2ebe bbc2 9ebe ca11 f2bd
00000200: dd50 4abe cb64 25be 7d56 b9be 36ba 9a3c
00000210: 87a2 033e 423e 583d 171d 30bc 2557 423e
00000220: 8a2e 323e 58ec bdbc 054c 1f3e bf4e 253d
00000230: 6d2c d8bc 0458 c1bd f307 f6bd 06cd 6e3e
00000240: a036 4b3d 60b7 72be 3b4d 753e bbc3 cd3c
00000250: 7473 1a3e 535f bcbd 350c 4bbe ad14 96be
00000260: 4c71 a0be cc80 06be 5990 543e 2758 bcbd
00000270: febb 87bd ba1d b1be fc19 b0bd ea5b b3be
00000280: a21a 803d 54f1 7d3d 83fe 313d ce65 02be
00000290: 12ca d93d 90e1 153e e9f1 553e 8933 833d
000002a0: dc40 98be 6c12 85be 8d1f 5abb be3d 69bd
000002b0: 4e5f 1d3e bccd 673e 7d56 583e 1920 3d3d
000002c0: 28ed 3d3d f828 8dbc 8994 683e 9c34 a0be
000002d0: 2153 893d d9bb a3be 8a59 85be 461b 7d3e
000002e0: 6f67 16bc db03 6b3d f7df 3fbf 427d 9f3e
000002f0: c6d3 26bf 4a1a 1bbf 6929 a83e 29fa 23bd
00000300: b202 a4bd a3d6 2b3e cfd7 fbbd 3a9d bcbd
00000310: 8fb1 ef3d f16c 20bf 8e9e e3bc e78d 6dbf
00000320: f0fc 6dbe d301 fd3d 2255 50be f0e0 ac3e
00000330: e30d 3abe fc7a d13e 12bb 8c3e 92c1 613d
00000340: 7505 0cbe 0142 683e 5d06 903e c706 26be
00000350: 7e84 a7be 01d6 a23e baec 3e3e 1b51 ee3d
00000360: 4077 9dbe 527c 143f ba5e 01bf 6e49 713e
00000370: e54d 213e e2e7 03bf 03c0 1c3e 5b29 5e3e
00000380: e22c eabe f14f a2bd f345 9b3e 5333 dcbe
00000390: 8f7b 44be d1b2 e83d 4082 103f f2d8 b23e
000003a0: e0c0 8abe ce7d 71bd 0b47 b6be a2ae 79bd
000003b0: 83fb abbe 49f3 7b3d 7efe c53d 12c3 423d
000003c0: e74a 78be 70e9 693e e1f1 91be 5d04 633e
000003d0: f62e 363d c95b 893e 85bb 15bd a405 253e
000003e0: 7e08 2bbd eb68 15be 5de7 82be a24c f1bd
000003f0: 7961 27bd 6a7c 88be 7895 8ebd 56e9 74be

sequential_4/dense_21/MatMul i1 [256, 31] scale=0.008789344 zero_point=0
-0.079104096 -0.16699754 -0.035157375 -0.21094425 -0.09668278 -0.052736063 -0.27246967 -0.2197336
0.0 -0.23731229 -0.2021549 0.12305081 -0.1406295 -0.19336556 0.079104096 0.08789344
-0.061525404 -0.035157375 -0.1406295 0.3603631 -0.09668278 -0.052736063 -0.11426147 -0.04394672
-0.017578688 -0.18457621 -0.09668278 -0.052736063 -0.281259 -0.079104096 -0.12305081 -0.061525404
0.0 -0.061525404 -0.026368031 0.026368031 -0.13184015 0.0 -0.08789344 -0.09668278
0.09668278 -0.08789344 -0.008789344 0.105472125 -0.008789344 0.079104096 -0.079104096 -0.035157375
0.052736063 0.04394672 -0.13184015 -0.04394672 -0.08789344 -0.15820819 0.061525404 -0.16699754
-0.12305081 -0.026368031 0.0 -0.14941885 -0.017578688 -0.13184015 -0.47462457 -0.11426147
0.079104096 0.061525404 0.11426147 0.12305081 -0.22852294 -0.017578688 -0.017578688 -0.16699754
0.0 -0.14941885 0.09668278 -0.3779418 0.13184015 0.1406295 -0.23731229 0.105472125
0.2021549 -0.11426147 0.0 -0.026368031 -0.008789344 0.017578688 -0.04394672 -0.22852294
-0.026368031 0.04394672 -0.22852294 -0.15820819 -0.026368031 -0.008789344 -0.07031475 0.09668278
-0.07031475 -0.1406295 0.15820819 -0.1406295 0.061525404 -0.017578688 -0.052736063 0.21094425
-0.026368031 0.105472125 0.04394672 -0.105472125 -0.2021549 -0.3252057 -0.17578688 0.21094425
-0.105472125 -0.18457621 0.061525404 -0.22852294 -0.09668278 -0.079104096 -0.29004833 -0.026368031
-0.1406295 -0.11426147 -0.281259 -0.079104096 -0.60646474 -0.19336556 -0.07031475 -0.18457621
-0.12305081 0.13184015 -0.3603631 -0.008789344 0.1406295 -0.41309917 -0.51857126 0.14941885
0.079104096 -0.18457621 -0.105472125 -0.13184015 0.1406295 0.12305081 0.11426147 -0.2197336
0.079104096 0.008789344 -0.13184015 0.08789344 0.39552048 -0.4658352 0.31641638 0.2021549
0.12305081 0.35157377 0.04394672 -0.44825652 -0.07031475 -0.079104096 -0.55372864 0.16699754
-0.15820819 -0.24610162 -0.3427844 -0.09668278 -0.3252057 -0.25489098 -0.026368031 -0.105472125
-0.57130736 0.0 0.15820819 0.008789344 0.17578688 0.008789344 -0.13184015 0.12305081
0.11426147 -0.49220324 -0.08789344 0.23731229 -0.41309917 0.15820819 -0.017578688 0.4658352
0.5009926 -0.061525404 0.061525404 0.0 -0.052736063 -0.24610162 -0.061525404 0.052736063
0.13184015 0.035157375 -0.008789344 0.15820819 0.21094425 -0.12305081 -0.105472125 -0.017578688
-0.035157375 -0.052736063 -0.026368031 -0.281259 -0.008789344 -0.15820819 0.079104096 0.15820819
-0.14941885 -0.052736063 -0.17578688 0.44825652 -0.061525404 0.04394672 -0.24610162 -0.1406295
0.12305081 -0.079104096 -0.09668278 0.09668278 0.008789344 0.026368031 0.12305081 -0.026368031
0.11426147 -0.07031475 0.061525404 -0.061525404 0.079104096 0.12305081 -0.07031475 -0.061525404
-0.04394672 -0.12305081 -0.17578688 0.017578688 -0.026368031 -0.04394672 -0.11426147 0.035157375
0.07031475 -0.026368031 -0.026368031 0.04394672 -0.008789344 0.017578688 -0.026368031 -0.12305081
-0.3779418 0.15820819 -0.11426147 -0.4394672 0.16699754 0.079104096 -0.1406295 0.19336556
00000000: f7ed fce8 f5fa e1e7 00e5 e90e f0ea 090a
00000010: f9fc f029 f5fa f3fb feeb f5fa e0f7 f2f9
00000020: 00f9 fd03 f100 f6f5 0bf6 ff0c ff09 f7fc
00000030: 0605 f1fb f6ee 07ed f2fd 00ef fef1 caf3
00000040: 0907 0d0e e6fe feed 00ef 0bd5 0f10 e50c
00000050: 17f3 00fd ff02 fbe6 fd05 e6ee fdff f80b
00000060: f8f0 12f0 07fe fa18 fd0c 05f4 e9db ec18
00000070: f4eb 07e6 f5f7 dffd f0f3 e0f7 bbea f8eb
00000080: f20f d7ff 10d1 c511 09eb f4f1 100e 0de7
00000090: 0901 f10a 2dcb 2417 0e28 05cd f8f7 c113
000000a0: eee4 d9f5 dbe3 fdf4 bf00 1201 1401 f10e
000000b0: 0dc8 f61b d112 fe35 39f9 0700 fae4 f906
000000c0: 0f04 ff12 18f2 f4fe fcfa fde0 ffee 0912
000000d0: effa ec33 f905 e4f0 0ef7 f50b 0103 0efd
000000e0: 0df8 07f9 090e f8f9 fbf2 ec02 fdfb f304
000000f0: 08fd fd05 ff02 fdf2 d512 f3ce 1309 f016

sequential_4/dense_22/MatMul i1 [128, 256] scale=0.009360868 zero_point=0
0.018721735 0.19657822 -0.17785649 -0.17785649 -0.028082602 -0.028082602 0.018721735 -0.009360868
0.03744347 0.009360868 0.04680434 0.056165203 -0.14977388 0.009360868 -0.14041302 -0.07488694
-0.084247805 -0.018721735 0.03744347 -0.12169128 -0.028082602 -0.14041302 -0.11233041 -0.15913475
-0.009360868 -0.04680434 0.018721735 0.15913475 0.09360868 0.11233041 -0.018721735 -0.13105215
0.028082602 0.03744347 -0.19657822 0.11233041 0.04680434 0.018721735 -0.14977388 0.056165203
-0.07488694 -0.028082602 -0.07488694 0.056165203 0.084247805 -0.028082602 -0.03744347 0.11233041
-0.14041302 0.009360868 -0.17785649 0.09360868 -0.17785649 -0.028082602 -0.084247805 0.07488694
0.09360868 0.14041302 0.065526076 -0.028082602 0.056165203 -0.056165203 -0.11233041 -0.028082602
-0.065526076 -0.056165203 -0.19657822 -0.24338256 0.009360868 0.16849561 -0.009360868 -0.084247805
0.09360868 -0.11233041 0.10296954 0.04680434 -0.028082602 -0.07488694 -0.10296954 0.084247805
0.0 -0.16849561 -0.20593908 0.04680434 -0.065526076 0.0 -0.11233041 -0.09360868
0.018721735 -0.2621043 -0.09360868 -0.07488694 -0.14041302 0.04680434 -0.10296954 -0.15913475
-0.009360868 -0.14977388 -0.084247805 -0.12169128 -0.15913475 0.14041302 -0.17785649 -0.12169128
-0.07488694 0.12169128 0.018721735 0.04680434 0.009360868 0.03744347 -0.084247805 -0.12169128
-0.11233041 0.03744347 0.04680434 -0.018721735 -0.13105215 -0.11233041 -0.056165203 -0.028082602
0.04680434 -0.056165203 -0.10296954 -0.04680434 0.09360868 0.03744347 -0.056165203 -0.17785649
-0.15913475 0.009360868 0.018721735 -0.14977388 -0.04680434 -0.03744347 -0.10296954 0.028082602
-0.084247805 -0.04680434 0.018721735 -0.084247805 -0.03744347 -0.084247805 0.084247805 -0.084247805
-0.03744347 0.13105215 0.009360868 -0.065526076 -0.12169128 -0.028082602 -0.16849561 0.0
0.04680434 -0.03744347 -0.065526076 0.03744347 -0.14041302 0.009360868 -0.03744347 -0.065526076
-0.12169128 0.009360868 -0.18721735 0.16849561 -0.009360868 0.009360868 -0.09360868 -0.11233041
-0.21529995 -0.14041302 -0.16849561 -0.065526076 -0.03744347 0.04680434 0.056165203 -0.04680434
-0.018721735 0.12169128 -0.065526076 -0.084247805 -0.14977388 -0.018721735 0.028082602 0.056165203
-0.13105215 0.03744347 0.03744347 -0.13105215 -0.14041302 0.018721735 -0.17785649 -0.03744347
-0.15913475 0.12169128 -0.13105215 0.009360868 -0.14041302 0.16849561 -0.018721735 0.018721735
-0.056165203 -0.056165203 -0.09360868 0.056165203 0.0 -0.056165203 -0.09360868 -0.056165203
0.084247805 -0.10296954 -0.07488694 0.11233041 -0.17785649 0.03744347 0.018721735 -0.018721735
0.04680434 -0.018721735 0.07488694 0.15913475 -0.09360868 -0.07488694 0.056165203 0.0
-0.07488694 -0.12169128 0.028082602 -0.065526076 -0.07488694 0.065526076 0.09360868 -0.056165203
0.018721735 -0.009360868 -0.18721735 -0.084247805 0.018721735 0.03744347 -0.03744347 0.03744347
0.07488694 -0.065526076 0.03744347 -0.028082602 -0.09360868 -0.084247805 0.12169128 -0.07488694
0.12169128 -0.03744347 0.028082602 0.084247805 0.018721735 -0.084247805 -0.056165203 -0.09360868
00000000: 0215 eded fdfd 02ff 0401 0506 f001 f1f8
00000010: f7fe 04f3 fdf1 f4ef fffb 0211 0a0c fef2
00000020: 0304 eb0c 0502 f006 f8fd f806 09fd fc0c
00000030: f101 ed0a edfd f708 0a0f 07fd 06fa f4fd
00000040: f9fa ebe6 0112 fff7 0af4 0b05 fdf8 f509
00000050: 00ee ea05 f900 f4f6 02e4 f6f8 f105 f5ef
00000060: fff0 f7f3 ef0f edf3 f80d 0205 0104 f7f3
00000070: f404 05fe f2f4 fafd 05fa f5fb 0a04 faed
00000080: ef01 02f0 fbfc f503 f7fb 02f7 fcf7 09f7
00000090: fc0e 01f9 f3fd ee00 05fc f904 f101 fcf9
000000a0: f301 ec12 ff01 f6f4 e9f1 eef9 fc05 06fb
000000b0: fe0d f9f7 f0fe 0306 f204 04f2 f102 edfc
000000c0: ef0d f201 f112 fe02 fafa f606 00fa f6fa
000000d0: 09f5 f80c ed04 02fe 05fe 0811 f6f8 0600
000000e0: f8f3 03f9 f807 0afa 02ff ecf7 0204 fc04
000000f0: 08f9 04fd f6f7 0df8 0dfc 0309 02f7 faf6

sequential_4/dense_23/MatMul i1 [256, 128] scale=0.008916198 zero_point=0
-0.071329586 -0.17832397 0.4458099 0.089161985 0.008916198 -0.16940777 0.071329586 -0.18724017
-0.089161985 0.062413387 0.0 -0.27640215 -0.106994376 0.017832397 0.053497188 0.062413387
-0.23182115 -0.20507257 0.008916198 0.008916198 -0.124826774 0.017832397 -0.124826774 0.008916198
0.035664793 0.044580992 0.053497188 -0.017832397 0.0 0.008916198 0.16940777 -0.37448034
-0.16049157 -0.017832397 0.35664794 0.035664793 -0.13374297 -0.4636423 0.071329586 0.044580992
-0.098078184 -0.089161985 0.22290495 0.22290495 0.026748594 -0.115910575 0.071329586 0.071329586
-0.026748594 0.15157537 -0.080245785 -0.14265917 0.0 -0.044580992 0.27640215 0.15157537
0.026748594 -0.115910575 -0.062413387 0.062413387 0.24965355 -0.25856975 0.27640215 0.071329586
-0.062413387 0.044580992 -0.026748594 0.26748595 0.098078184 0.0 0.008916198 -0.15157537
0.28531834 -0.115910575 -0.026748594 0.044580992 0.035664793 -0.017832397 -0.035664793 -0.20507257
0.23182115 0.044580992 0.008916198 0.035664793 0.14265917 0.23182115 -0.37448034 -0.34773174
-0.017832397 -0.20507257 0.17832397 -0.14265917 0.18724017 -0.071329586 0.24073735 0.044580992
-0.124826774 -0.16940777 -0.017832397 0.115910575 -0.25856975 0.044580992 -0.098078184 -0.053497188
-0.080245785 -0.035664793 0.0 0.27640215 -0.115910575 -0.089161985 0.017832397 -0.16049157
-0.017832397 0.080245785 -0.017832397 -0.044580992 -0.14265917 -0.124826774 0.0 0.17832397
0.19615637 0.026748594 -0.044580992 0.27640215 -0.18724017 -0.14265917 -0.062413387 -0.16049157
0.14265917 0.33881554 -0.24073735 -0.115910575 -0.16940777 -0.044580992 -0.106994376 0.24965355
0.13374297 -0.21398875 -0.115910575 0.106994376 0.106994376 0.17832397 0.026748594 0.035664793
0.035664793 0.13374297 0.16049157 0.080245785 0.035664793 0.026748594 -0.008916198 0.017832397
-0.16049157 0.017832397 0.008916198 -0.17832397 -0.16049157 0.035664793 -0.27640215 0.16940777
-0.053497188 -0.124826774 0.080245785 0.008916198 0.053497188 0.4814747 0.124826774 -0.080245785
-0.14265917 -0.035664793 -0.23182115 0.0 -0.026748594 -0.29423454 0.017832397 -0.16940777
0.080245785 -0.071329586 0.115910575 0.071329586 0.035664793 0.071329586 0.106994376 -0.089161985
-0.080245785 0.13374297 -0.053497188 -0.098078184 -0.18724017 0.115910575 0.124826774 0.0
-0.22290495 -0.098078184 0.33881554 -0.38339654 -0.17832397 -0.035664793 0.035664793 0.089161985
-0.098078184 0.071329586 0.080245785 0.089161985 -0.098078184 -0.124826774 0.25856975 -0.035664793
-0.098078184 -0.14265917 -0.115910575 -0.044580992 -0.044580992 0.17832397 0.071329586 0.053497188
0.008916198 0.15157537 0.14265917 0.106994376 -0.044580992 -0.017832397 0.24073735 0.062413387
0.14265917 0.053497188 0.115910575 0.035664793 0.20507257 0.089161985 0.115910575 -0.15157537
-0.089161985 -0.035664793 0.0 -0.026748594 -0.19615637 0.0 -0.035664793 0.044580992
0.089161985 -0.13374297 0.071329586 0.16049157 0.026748594 -0.008916198 0.15157537 0.124826774
0.089161985 0.008916198 0.124826774 0.035664793 0.098078184 0.23182115 -0.026748594 0.15157537
00000000: f8ec 320a 01ed 08eb f607 00e1 f402 0607
00000010: e6e9 0101 f202 f201 0405 06fe 0001 13d6
00000020: eefe 2804 f1cc 0805 f5f6 1919 03f3 0808
00000030: fd11 f7f0 00fb 1f11 03f3 f907 1ce3 1f08
00000040: f905 fd1e 0b00 01ef 20f3 fd05 04fe fce9
00000050: 1a05 0104 101a d6d9 fee9 14f0 15f8 1b05
00000060: f2ed fe0d e305 f5fa f7fc 001f f3f6 02ee
00000070: fe09 fefb f0f2 0014 1603 fb1f ebf0 f9ee
00000080: 1026 e5f3 edfb f41c 0fe8 f30c 0c14 0304
00000090: 040f 1209 0403 ff02 ee02 01ec ee04 e113
000000a0: faf2 0901 0636 0ef7 f0fc e600 fddf 02ed
000000b0: 09f8 0d08 0408 0cf6 f70f faf5 eb0d 0e00
000000c0: e7f5 26d5 ecfc 040a f508 090a f5f2 1dfc
000000d0: f5f0 f3fb fb14 0806 0111 100c fbfe 1b07
000000e0: 1006 0d04 170a 0def f6fc 00fd ea00 fc05
000000f0: 0af1 0812 03ff 110e 0a01 0e04 0b1a fd11
